…
delta:   1208000000.0
scan:    1434455808.0
out:     19325000000.0
in:      38655000000.0
conv1D:  100663296
x_proj:  2013500000.0
delta:   1208000000.0
scan:    1434455808.0
out:     19325000000.0
in:      38655000000.0
conv1D:  100663296
x_proj:  2013500000.0
delta:   1208000000.0
scan:    1434455808.0
out:     19325000000.0
in:      38655000000.0
N/A indicates a possibly missing statistic due to how the module was called. Missing values are still included in the parent's total.
MambaLMHeadModel(
  #params: 0.13G, #flops: 2.14T
  (backbone): MixerModel(
    #params: 0.13G, #flops: 1.51T
    (embedding): Embedding(
      50280, 768
      #params: 38.62M, #flops: 0
    )
    (layers): ModuleList(
      #params: 90.52M, #flops: 1.51T
      (0): Block(
        #params: 3.77M, #flops: 62.76G
        (mixer): Mamba(
          #params: 3.77M, #flops: 62.74G
          (in_proj): Linear(
            in_features=768, out_features=3072, bias=False
            #params: 2.36M, #flops: N/A
          )
          (conv1d): Conv1d(
            1536, 1536, kernel_size=(4,), stride=(1,), padding=(3,), groups=1536
            #params: 7.68K, #flops: N/A
          )
          (act): SiLU(#params: 0, #flops: N/A)
          (x_proj): Linear(
            in_features=1536, out_features=80, bias=False
            #params: 0.12M, #flops: N/A
          )
          (dt_proj): Linear(
            in_features=48, out_features=1536, bias=True
            #params: 75.26K, #flops: N/A
          )
          (out_proj): Linear(
            in_features=1536, out_features=768, bias=False
            #params: 1.18M, #flops: N/A
          )
        )
        (norm): RMSNorm(#params: 0.77K, #flops: N/A)
      )
      (1): Block(
        #params: 3.77M, #flops: 62.76G
        (mixer): Mamba(
          #params: 3.77M, #flops: 62.74G
          (in_proj): Linear(
            in_features=768, out_features=3072, bias=False
            #params: 2.36M, #flops: N/A
          )
          (conv1d): Conv1d(
            1536, 1536, kernel_size=(4,), stride=(1,), padding=(3,), groups=1536
            #params: 7.68K, #flops: N/A
          )
          (act): SiLU(#params: 0, #flops: N/A)
          (x_proj): Linear(
            in_features=1536, out_features=80, bias=False
            #params: 0.12M, #flops: N/A
          )
          (dt_proj): Linear(
            in_features=48, out_features=1536, bias=True
            #params: 75.26K, #flops: N/A
          )
          (out_proj): Linear(
            in_features=1536, out_features=768, bias=False
            #params: 1.18M, #flops: N/A
          )
        )
        (norm): RMSNorm(#params: 0.77K, #flops: N/A)
      )
      (2): Block(
        #params: 3.77M, #flops: 62.76G
        (mixer): Mamba(
          #params: 3.77M, #flops: 62.74G
          (in_proj): Linear(
            in_features=768, out_features=3072, bias=False
            #params: 2.36M, #flops: N/A
          )
          (conv1d): Conv1d(
            1536, 1536, kernel_size=(4,), stride=(1,), padding=(3,), groups=1536
            #params: 7.68K, #flops: N/A
          )
          (act): SiLU(#params: 0, #flops: N/A)
          (x_proj): Linear(
            in_features=1536, out_features=80, bias=False
            #params: 0.12M, #flops: N/A
          )
          (dt_proj): Linear(
            in_features=48, out_features=1536, bias=True
            #params: 75.26K, #flops: N/A
          )
          (out_proj): Linear(
            in_features=1536, out_features=768, bias=False
            #params: 1.18M, #flops: N/A
          )
        )
        (norm): RMSNorm(#params: 0.77K, #flops: N/A)
      )
      (3): Block(
        #params: 3.77M, #flops: 62.76G
        (mixer): Mamba(
          #params: 3.77M, #flops: 62.74G
          (in_proj): Linear(
            in_features=768, out_features=3072, bias=False
            #params: 2.36M, #flops: N/A
          )
          (conv1d): Conv1d(
            1536, 1536, kernel_size=(4,), stride=(1,), padding=(3,), groups=1536
            #params: 7.68K, #flops: N/A
          )
          (act): SiLU(#params: 0, #flops: N/A)
          (x_proj): Linear(
            in_features=1536, out_features=80, bias=False
            #params: 0.12M, #flops: N/A
          )
          (dt_proj): Linear(
            in_features=48, out_features=1536, bias=True
            #params: 75.26K, #flops: N/A
          )
          (out_proj): Linear(
            in_features=1536, out_features=768, bias=False
            #params: 1.18M, #flops: N/A
          )
        )
        (norm): RMSNorm(#params: 0.77K, #flops: N/A)
      )
      (4): Block(
        #params: 3.77M, #flops: 62.76G
        (mixer): Mamba(
          #params: 3.77M, #flops: 62.74G
          (in_proj): Linear(
            in_features=768, out_features=3072, bias=False
            #params: 2.36M, #flops: N/A
          )
          (conv1d): Conv1d(
            1536, 1536, kernel_size=(4,), stride=(1,), padding=(3,), groups=1536
            #params: 7.68K, #flops: N/A
          )
          (act): SiLU(#params: 0, #flops: N/A)
          (x_proj): Linear(
            in_features=1536, out_features=80, bias=False
            #params: 0.12M, #flops: N/A
          )
          (dt_proj): Linear(
            in_features=48, out_features=1536, bias=True
            #params: 75.26K, #flops: N/A
          )
          (out_proj): Linear(
            in_features=1536, out_features=768, bias=False
            #params: 1.18M, #flops: N/A
          )
        )
        (norm): RMSNorm(#params: 0.77K, #flops: N/A)
      )
      (5): Block(
        #params: 3.77M, #flops: 62.76G
        (mixer): Mamba(
          #params: 3.77M, #flops: 62.74G
          (in_proj): Linear(
            in_features=768, out_features=3072, bias=False
            #params: 2.36M, #flops: N/A
          )
          (conv1d): Conv1d(
            1536, 1536, kernel_size=(4,), stride=(1,), padding=(3,), groups=1536
            #params: 7.68K, #flops: N/A
          )
          (act): SiLU(#params: 0, #flops: N/A)
          (x_proj): Linear(
            in_features=1536, out_features=80, bias=False
            #params: 0.12M, #flops: N/A
          )
          (dt_proj): Linear(
            in_features=48, out_features=1536, bias=True
            #params: 75.26K, #flops: N/A
          )
          (out_proj): Linear(
            in_features=1536, out_features=768, bias=False
            #params: 1.18M, #flops: N/A
          )
        )
        (norm): RMSNorm(#params: 0.77K, #flops: N/A)
      )
      (6): Block(
        #params: 3.77M, #flops: 62.76G
        (mixer): Mamba(
          #params: 3.77M, #flops: 62.74G
          (in_proj): Linear(
            in_features=768, out_features=3072, bias=False
            #params: 2.36M, #flops: N/A
          )
          (conv1d): Conv1d(
            1536, 1536, kernel_size=(4,), stride=(1,), padding=(3,), groups=1536
            #params: 7.68K, #flops: N/A
          )
          (act): SiLU(#params: 0, #flops: N/A)
          (x_proj): Linear(
            in_features=1536, out_features=80, bias=False
            #params: 0.12M, #flops: N/A
          )
          (dt_proj): Linear(
            in_features=48, out_features=1536, bias=True
            #params: 75.26K, #flops: N/A
          )
          (out_proj): Linear(
            in_features=1536, out_features=768, bias=False
            #params: 1.18M, #flops: N/A
          )
        )
        (norm): RMSNorm(#params: 0.77K, #flops: N/A)
      )
      (7): Block(
        #params: 3.77M, #flops: 62.76G
        (mixer): Mamba(
          #params: 3.77M, #flops: 62.74G
          (in_proj): Linear(
            in_features=768, out_features=3072, bias=False
            #params: 2.36M, #flops: N/A
          )
          (conv1d): Conv1d(
            1536, 1536, kernel_size=(4,), stride=(1,), padding=(3,), groups=1536
            #params: 7.68K, #flops: N/A
          )
          (act): SiLU(#params: 0, #flops: N/A)
          (x_proj): Linear(
            in_features=1536, out_features=80, bias=False
            #params: 0.12M, #flops: N/A
          )
          (dt_proj): Linear(
            in_features=48, out_features=1536, bias=True
            #params: 75.26K, #flops: N/A
          )
          (out_proj): Linear(
            in_features=1536, out_features=768, bias=False
            #params: 1.18M, #flops: N/A
          )
        )
        (norm): RMSNorm(#params: 0.77K, #flops: N/A)
      )
      (8): Block(
        #params: 3.77M, #flops: 62.76G
        (mixer): Mamba(
          #params: 3.77M, #flops: 62.74G
          (in_proj): Linear(
            in_features=768, out_features=3072, bias=False
            #params: 2.36M, #flops: N/A
          )
          (conv1d): Conv1d(
            1536, 1536, kernel_size=(4,), stride=(1,), padding=(3,), groups=1536
            #params: 7.68K, #flops: N/A
          )
          (act): SiLU(#params: 0, #flops: N/A)
          (x_proj): Linear(
            in_features=1536, out_features=80, bias=False
            #params: 0.12M, #flops: N/A
          )
          (dt_proj): Linear(
            in_features=48, out_features=1536, bias=True
            #params: 75.26K, #flops: N/A
          )
          (out_proj): Linear(
            in_features=1536, out_features=768, bias=False
            #params: 1.18M, #flops: N/A
          )
        )
        (norm): RMSNorm(#params: 0.77K, #flops: N/A)
      )
      (9): Block(
        #params: 3.77M, #flops: 62.76G
        (mixer): Mamba(
          #params: 3.77M, #flops: 62.74G
          (in_proj): Linear(
            in_features=768, out_features=3072, bias=False
            #params: 2.36M, #flops: N/A
          )
          (conv1d): Conv1d(
            1536, 1536, kernel_size=(4,), stride=(1,), padding=(3,), groups=1536
            #params: 7.68K, #flops: N/A
          )
          (act): SiLU(#params: 0, #flops: N/A)
          (x_proj): Linear(
            in_features=1536, out_features=80, bias=False
            #params: 0.12M, #flops: N/A
          )
          (dt_proj): Linear(
            in_features=48, out_features=1536, bias=True
            #params: 75.26K, #flops: N/A
          )
          (out_proj): Linear(
            in_features=1536, out_features=768, bias=False
            #params: 1.18M, #flops: N/A
          )
        )
        (norm): RMSNorm(#params: 0.77K, #flops: N/A)
      )
      (10): Block(
        #params: 3.77M, #flops: 62.76G
        (mixer): Mamba(
          #params: 3.77M, #flops: 62.74G
          (in_proj): Linear(
            in_features=768, out_features=3072, bias=False
            #params: 2.36M, #flops: N/A
          )
          (conv1d): Conv1d(
            1536, 1536, kernel_size=(4,), stride=(1,), padding=(3,), groups=1536
            #params: 7.68K, #flops: N/A
          )
          (act): SiLU(#params: 0, #flops: N/A)
          (x_proj): Linear(
            in_features=1536, out_features=80, bias=False
            #params: 0.12M, #flops: N/A
          )
          (dt_proj): Linear(
            in_features=48, out_features=1536, bias=True
            #params: 75.26K, #flops: N/A
          )
          (out_proj): Linear(
            in_features=1536, out_features=768, bias=False
            #params: 1.18M, #flops: N/A
          )
        )
        (norm): RMSNorm(#params: 0.77K, #flops: N/A)
      )
      (11): Block(
        #params: 3.77M, #flops: 62.76G
        (mixer): Mamba(
          #params: 3.77M, #flops: 62.74G
          (in_proj): Linear(
            in_features=768, out_features=3072, bias=False
            #params: 2.36M, #flops: N/A
          )
          (conv1d): Conv1d(
            1536, 1536, kernel_size=(4,), stride=(1,), padding=(3,), groups=1536
            #params: 7.68K, #flops: N/A
          )
          (act): SiLU(#params: 0, #flops: N/A)
          (x_proj): Linear(
            in_features=1536, out_features=80, bias=False
            #params: 0.12M, #flops: N/A
          )
          (dt_proj): Linear(
            in_features=48, out_features=1536, bias=True
            #params: 75.26K, #flops: N/A
          )
          (out_proj): Linear(
            in_features=1536, out_features=768, bias=False
            #params: 1.18M, #flops: N/A
          )
        )
        (norm): RMSNorm(#params: 0.77K, #flops: N/A)
      )
      (12): Block(
        #params: 3.77M, #flops: 62.76G
        (mixer): Mamba(
          #params: 3.77M, #flops: 62.74G
          (in_proj): Linear(
            in_features=768, out_features=3072, bias=False
            #params: 2.36M, #flops: N/A
          )
          (conv1d): Conv1d(
            1536, 1536, kernel_size=(4,), stride=(1,), padding=(3,), groups=1536
            #params: 7.68K, #flops: N/A
          )
          (act): SiLU(#params: 0, #flops: N/A)
          (x_proj): Linear(
            in_features=1536, out_features=80, bias=False
            #params: 0.12M, #flops: N/A
          )
          (dt_proj): Linear(
            in_features=48, out_features=1536, bias=True
            #params: 75.26K, #flops: N/A
          )
          (out_proj): Linear(
            in_features=1536, out_features=768, bias=False
            #params: 1.18M, #flops: N/A
          )
        )
        (norm): RMSNorm(#params: 0.77K, #flops: N/A)
      )
      (13): Block(
        #params: 3.77M, #flops: 62.76G
        (mixer): Mamba(
          #params: 3.77M, #flops: 62.74G
          (in_proj): Linear(
            in_features=768, out_features=3072, bias=False
            #params: 2.36M, #flops: N/A
          )
          (conv1d): Conv1d(
            1536, 1536, kernel_size=(4,), stride=(1,), padding=(3,), groups=1536
            #params: 7.68K, #flops: N/A
          )
          (act): SiLU(#params: 0, #flops: N/A)
          (x_proj): Linear(
            in_features=1536, out_features=80, bias=False
            #params: 0.12M, #flops: N/A
          )
          (dt_proj): Linear(
            in_features=48, out_features=1536, bias=True
            #params: 75.26K, #flops: N/A
          )
          (out_proj): Linear(
            in_features=1536, out_features=768, bias=False
            #params: 1.18M, #flops: N/A
          )
        )
        (norm): RMSNorm(#params: 0.77K, #flops: N/A)
      )
      (14): Block(
        #params: 3.77M, #flops: 62.76G
        (mixer): Mamba(
          #params: 3.77M, #flops: 62.74G
          (in_proj): Linear(
            in_features=768, out_features=3072, bias=False
            #params: 2.36M, #flops: N/A
          )
          (conv1d): Conv1d(
            1536, 1536, kernel_size=(4,), stride=(1,), padding=(3,), groups=1536
            #params: 7.68K, #flops: N/A
          )
          (act): SiLU(#params: 0, #flops: N/A)
          (x_proj): Linear(
            in_features=1536, out_features=80, bias=False
            #params: 0.12M, #flops: N/A
          )
          (dt_proj): Linear(
            in_features=48, out_features=1536, bias=True
            #params: 75.26K, #flops: N/A
          )
          (out_proj): Linear(
            in_features=1536, out_features=768, bias=False
            #params: 1.18M, #flops: N/A
          )
        )
        (norm): RMSNorm(#params: 0.77K, #flops: N/A)
      )
      (15): Block(
        #params: 3.77M, #flops: 62.76G
        (mixer): Mamba(
          #params: 3.77M, #flops: 62.74G
          (in_proj): Linear(
            in_features=768, out_features=3072, bias=False
            #params: 2.36M, #flops: N/A
          )
          (conv1d): Conv1d(
            1536, 1536, kernel_size=(4,), stride=(1,), padding=(3,), groups=1536
            #params: 7.68K, #flops: N/A
          )
          (act): SiLU(#params: 0, #flops: N/A)
          (x_proj): Linear(
            in_features=1536, out_features=80, bias=False
            #params: 0.12M, #flops: N/A
          )
          (dt_proj): Linear(
            in_features=48, out_features=1536, bias=True
            #params: 75.26K, #flops: N/A
          )
          (out_proj): Linear(
            in_features=1536, out_features=768, bias=False
            #params: 1.18M, #flops: N/A
          )
        )
        (norm): RMSNorm(#params: 0.77K, #flops: N/A)
      )
      (16): Block(
        #params: 3.77M, #flops: 62.76G
        (mixer): Mamba(
          #params: 3.77M, #flops: 62.74G
          (in_proj): Linear(
            in_features=768, out_features=3072, bias=False
            #params: 2.36M, #flops: N/A
          )
          (conv1d): Conv1d(
            1536, 1536, kernel_size=(4,), stride=(1,), padding=(3,), groups=1536
            #params: 7.68K, #flops: N/A
          )
          (act): SiLU(#params: 0, #flops: N/A)
          (x_proj): Linear(
            in_features=1536, out_features=80, bias=False
            #params: 0.12M, #flops: N/A
          )
          (dt_proj): Linear(
            in_features=48, out_features=1536, bias=True
            #params: 75.26K, #flops: N/A
          )
          (out_proj): Linear(
            in_features=1536, out_features=768, bias=False
            #params: 1.18M, #flops: N/A
          )
        )
        (norm): RMSNorm(#params: 0.77K, #flops: N/A)
      )
      (17): Block(
        #params: 3.77M, #flops: 62.76G
        (mixer): Mamba(
          #params: 3.77M, #flops: 62.74G
          (in_proj): Linear(
            in_features=768, out_features=3072, bias=False
            #params: 2.36M, #flops: N/A
          )
          (conv1d): Conv1d(
            1536, 1536, kernel_size=(4,), stride=(1,), padding=(3,), groups=1536
            #params: 7.68K, #flops: N/A
          )
          (act): SiLU(#params: 0, #flops: N/A)
          (x_proj): Linear(
            in_features=1536, out_features=80, bias=False
            #params: 0.12M, #flops: N/A
          )
          (dt_proj): Linear(
            in_features=48, out_features=1536, bias=True
            #params: 75.26K, #flops: N/A
          )
          (out_proj): Linear(
            in_features=1536, out_features=768, bias=False
            #params: 1.18M, #flops: N/A
          )
        )
        (norm): RMSNorm(#params: 0.77K, #flops: N/A)
      )
      (18): Block(
        #params: 3.77M, #flops: 62.76G
        (mixer): Mamba(
          #params: 3.77M, #flops: 62.74G
          (in_proj): Linear(
            in_features=768, out_features=3072, bias=False
            #params: 2.36M, #flops: N/A
          )
          (conv1d): Conv1d(
            1536, 1536, kernel_size=(4,), stride=(1,), padding=(3,), groups=1536
            #params: 7.68K, #flops: N/A
          )
          (act): SiLU(#params: 0, #flops: N/A)
          (x_proj): Linear(
            in_features=1536, out_features=80, bias=False
            #params: 0.12M, #flops: N/A
          )
          (dt_proj): Linear(
            in_features=48, out_features=1536, bias=True
            #params: 75.26K, #flops: N/A
          )
          (out_proj): Linear(
            in_features=1536, out_features=768, bias=False
            #params: 1.18M, #flops: N/A
          )
        )
        (norm): RMSNorm(#params: 0.77K, #flops: N/A)
      )
      (19): Block(
        #params: 3.77M, #flops: 62.76G
        (mixer): Mamba(
          #params: 3.77M, #flops: 62.74G
          (in_proj): Linear(
            in_features=768, out_features=3072, bias=False
            #params: 2.36M, #flops: N/A
          )
          (conv1d): Conv1d(
            1536, 1536, kernel_size=(4,), stride=(1,), padding=(3,), groups=1536
            #params: 7.68K, #flops: N/A
          )
          (act): SiLU(#params: 0, #flops: N/A)
          (x_proj): Linear(
            in_features=1536, out_features=80, bias=False
            #params: 0.12M, #flops: N/A
          )
          (dt_proj): Linear(
            in_features=48, out_features=1536, bias=True
            #params: 75.26K, #flops: N/A
          )
          (out_proj): Linear(
            in_features=1536, out_features=768, bias=False
            #params: 1.18M, #flops: N/A
          )
        )
        (norm): RMSNorm(#params: 0.77K, #flops: N/A)
      )
      (20): Block(
        #params: 3.77M, #flops: 62.76G
        (mixer): Mamba(
          #params: 3.77M, #flops: 62.74G
          (in_proj): Linear(
            in_features=768, out_features=3072, bias=False
            #params: 2.36M, #flops: N/A
          )
          (conv1d): Conv1d(
            1536, 1536, kernel_size=(4,), stride=(1,), padding=(3,), groups=1536
            #params: 7.68K, #flops: N/A
          )
          (act): SiLU(#params: 0, #flops: N/A)
          (x_proj): Linear(
            in_features=1536, out_features=80, bias=False
            #params: 0.12M, #flops: N/A
          )
          (dt_proj): Linear(
            in_features=48, out_features=1536, bias=True
            #params: 75.26K, #flops: N/A
          )
          (out_proj): Linear(
            in_features=1536, out_features=768, bias=False
            #params: 1.18M, #flops: N/A
          )
        )
        (norm): RMSNorm(#params: 0.77K, #flops: N/A)
      )
      (21): Block(
        #params: 3.77M, #flops: 62.76G
        (mixer): Mamba(
          #params: 3.77M, #flops: 62.74G
          (in_proj): Linear(
            in_features=768, out_features=3072, bias=False
            #params: 2.36M, #flops: N/A
          )
          (conv1d): Conv1d(
            1536, 1536, kernel_size=(4,), stride=(1,), padding=(3,), groups=1536
            #params: 7.68K, #flops: N/A
          )
          (act): SiLU(#params: 0, #flops: N/A)
          (x_proj): Linear(
            in_features=1536, out_features=80, bias=False
            #params: 0.12M, #flops: N/A
          )
          (dt_proj): Linear(
            in_features=48, out_features=1536, bias=True
            #params: 75.26K, #flops: N/A
          )
          (out_proj): Linear(
            in_features=1536, out_features=768, bias=False
            #params: 1.18M, #flops: N/A
          )
        )
        (norm): RMSNorm(#params: 0.77K, #flops: N/A)
      )
      (22): Block(
        #params: 3.77M, #flops: 62.76G
        (mixer): Mamba(
          #params: 3.77M, #flops: 62.74G
          (in_proj): Linear(
            in_features=768, out_features=3072, bias=False
            #params: 2.36M, #flops: N/A
          )
          (conv1d): Conv1d(
            1536, 1536, kernel_size=(4,), stride=(1,), padding=(3,), groups=1536
            #params: 7.68K, #flops: N/A
          )
          (act): SiLU(#params: 0, #flops: N/A)
          (x_proj): Linear(
            in_features=1536, out_features=80, bias=False
            #params: 0.12M, #flops: N/A
          )
          (dt_proj): Linear(
            in_features=48, out_features=1536, bias=True
            #params: 75.26K, #flops: N/A
          )
          (out_proj): Linear(
            in_features=1536, out_features=768, bias=False
            #params: 1.18M, #flops: N/A
          )
        )
        (norm): RMSNorm(#params: 0.77K, #flops: N/A)
      )
      (23): Block(
        #params: 3.77M, #flops: 62.76G
        (mixer): Mamba(
          #params: 3.77M, #flops: 62.74G
          (in_proj): Linear(
            in_features=768, out_features=3072, bias=False
            #params: 2.36M, #flops: N/A
          )
          (conv1d): Conv1d(
            1536, 1536, kernel_size=(4,), stride=(1,), padding=(3,), groups=1536
            #params: 7.68K, #flops: N/A
          )
          (act): SiLU(#params: 0, #flops: N/A)
          (x_proj): Linear(
            in_features=1536, out_features=80, bias=False
            #params: 0.12M, #flops: N/A
          )
          (dt_proj): Linear(
            in_features=48, out_features=1536, bias=True
            #params: 75.26K, #flops: N/A
          )
          (out_proj): Linear(
            in_features=1536, out_features=768, bias=False
            #params: 1.18M, #flops: N/A
          )
        )
        (norm): RMSNorm(#params: 0.77K, #flops: N/A)
      )
    )
    (norm_f): RMSNorm(#params: 0.77K, #flops: N/A)
  )
  (lm_head): Linear(
    in_features=768, out_features=50280, bias=False
    #params: 0, #flops: 0.63T
  )
)
| module                                         | #parameters or shape   | #flops      |
|:-----------------------------------------------|:-----------------------|:------------|
| model                                          | 0.129G                 | 2.139T      |
|  backbone                                      |  0.129G                |  1.506T     |
…
