OPTForCausalLM(
  #params: 0.13G, #flops: 2.64T
  (model): OPTModel(
    #params: 0.13G, #flops: 2.01T
    (decoder): OPTDecoder(
      #params: 0.13G, #flops: 2.01T
      (embed_tokens): Embedding(
        50272, 768, padding_idx=1
        #params: 38.61M, #flops: 0
      )
      (embed_positions): OPTLearnedPositionalEmbedding(
        2050, 768
        #params: 1.57M, #flops: 0
      )
      (final_layer_norm): LayerNorm(
        (768,), eps=1e-05, elementwise_affine=True
        #params: 1.54K, #flops: 62.91M
      )
      (layers): ModuleList(
        #params: 85.05M, #flops: 2.01T
        (0): OPTDecoderLayer(
          #params: 7.09M, #flops: 0.17T
          (self_attn): OPTAttention(
            #params: 2.36M, #flops: 90.19G
            (k_proj): Linear(
              in_features=768, out_features=768, bias=True
              #params: 0.59M, #flops: 9.66G
            )
            (v_proj): Linear(
              in_features=768, out_features=768, bias=True
              #params: 0.59M, #flops: 9.66G
            )
            (q_proj): Linear(
              in_features=768, out_features=768, bias=True
              #params: 0.59M, #flops: 9.66G
            )
            (out_proj): Linear(
              in_features=768, out_features=768, bias=True
              #params: 0.59M, #flops: 9.66G
            )
          )
          (activation_fn): ReLU()
          (self_attn_layer_norm): LayerNorm(
            (768,), eps=1e-05, elementwise_affine=True
            #params: 1.54K, #flops: 62.91M
          )
          (fc1): Linear(
            in_features=768, out_features=3072, bias=True
            #params: 2.36M, #flops: 38.65G
          )
          (fc2): Linear(
            in_features=3072, out_features=768, bias=True
            #params: 2.36M, #flops: 38.65G
          )
          (final_layer_norm): LayerNorm(
            (768,), eps=1e-05, elementwise_affine=True
            #params: 1.54K, #flops: 62.91M
          )
        )
        (1): OPTDecoderLayer(
          #params: 7.09M, #flops: 0.17T
          (self_attn): OPTAttention(
            #params: 2.36M, #flops: 90.19G
            (k_proj): Linear(
              in_features=768, out_features=768, bias=True
              #params: 0.59M, #flops: 9.66G
            )
            (v_proj): Linear(
              in_features=768, out_features=768, bias=True
              #params: 0.59M, #flops: 9.66G
            )
            (q_proj): Linear(
              in_features=768, out_features=768, bias=True
              #params: 0.59M, #flops: 9.66G
            )
            (out_proj): Linear(
              in_features=768, out_features=768, bias=True
              #params: 0.59M, #flops: 9.66G
            )
          )
          (activation_fn): ReLU()
          (self_attn_layer_norm): LayerNorm(
            (768,), eps=1e-05, elementwise_affine=True
            #params: 1.54K, #flops: 62.91M
          )
          (fc1): Linear(
            in_features=768, out_features=3072, bias=True
            #params: 2.36M, #flops: 38.65G
          )
          (fc2): Linear(
            in_features=3072, out_features=768, bias=True
            #params: 2.36M, #flops: 38.65G
          )
          (final_layer_norm): LayerNorm(
            (768,), eps=1e-05, elementwise_affine=True
            #params: 1.54K, #flops: 62.91M
          )
        )
        (2): OPTDecoderLayer(
          #params: 7.09M, #flops: 0.17T
          (self_attn): OPTAttention(
            #params: 2.36M, #flops: 90.19G
            (k_proj): Linear(
              in_features=768, out_features=768, bias=True
              #params: 0.59M, #flops: 9.66G
            )
            (v_proj): Linear(
              in_features=768, out_features=768, bias=True
              #params: 0.59M, #flops: 9.66G
            )
            (q_proj): Linear(
              in_features=768, out_features=768, bias=True
              #params: 0.59M, #flops: 9.66G
            )
            (out_proj): Linear(
              in_features=768, out_features=768, bias=True
              #params: 0.59M, #flops: 9.66G
            )
          )
          (activation_fn): ReLU()
          (self_attn_layer_norm): LayerNorm(
            (768,), eps=1e-05, elementwise_affine=True
            #params: 1.54K, #flops: 62.91M
          )
          (fc1): Linear(
            in_features=768, out_features=3072, bias=True
            #params: 2.36M, #flops: 38.65G
          )
          (fc2): Linear(
            in_features=3072, out_features=768, bias=True
            #params: 2.36M, #flops: 38.65G
          )
          (final_layer_norm): LayerNorm(
            (768,), eps=1e-05, elementwise_affine=True
            #params: 1.54K, #flops: 62.91M
          )
        )
        (3): OPTDecoderLayer(
          #params: 7.09M, #flops: 0.17T
          (self_attn): OPTAttention(
            #params: 2.36M, #flops: 90.19G
            (k_proj): Linear(
              in_features=768, out_features=768, bias=True
              #params: 0.59M, #flops: 9.66G
            )
            (v_proj): Linear(
              in_features=768, out_features=768, bias=True
              #params: 0.59M, #flops: 9.66G
            )
            (q_proj): Linear(
              in_features=768, out_features=768, bias=True
              #params: 0.59M, #flops: 9.66G
            )
            (out_proj): Linear(
              in_features=768, out_features=768, bias=True
              #params: 0.59M, #flops: 9.66G
            )
          )
          (activation_fn): ReLU()
          (self_attn_layer_norm): LayerNorm(
            (768,), eps=1e-05, elementwise_affine=True
            #params: 1.54K, #flops: 62.91M
          )
          (fc1): Linear(
            in_features=768, out_features=3072, bias=True
            #params: 2.36M, #flops: 38.65G
          )
          (fc2): Linear(
            in_features=3072, out_features=768, bias=True
            #params: 2.36M, #flops: 38.65G
          )
          (final_layer_norm): LayerNorm(
            (768,), eps=1e-05, elementwise_affine=True
            #params: 1.54K, #flops: 62.91M
          )
        )
        (4): OPTDecoderLayer(
          #params: 7.09M, #flops: 0.17T
          (self_attn): OPTAttention(
            #params: 2.36M, #flops: 90.19G
            (k_proj): Linear(
              in_features=768, out_features=768, bias=True
              #params: 0.59M, #flops: 9.66G
            )
            (v_proj): Linear(
              in_features=768, out_features=768, bias=True
              #params: 0.59M, #flops: 9.66G
            )
            (q_proj): Linear(
              in_features=768, out_features=768, bias=True
              #params: 0.59M, #flops: 9.66G
            )
            (out_proj): Linear(
              in_features=768, out_features=768, bias=True
              #params: 0.59M, #flops: 9.66G
            )
          )
          (activation_fn): ReLU()
          (self_attn_layer_norm): LayerNorm(
            (768,), eps=1e-05, elementwise_affine=True
            #params: 1.54K, #flops: 62.91M
          )
          (fc1): Linear(
            in_features=768, out_features=3072, bias=True
            #params: 2.36M, #flops: 38.65G
          )
          (fc2): Linear(
            in_features=3072, out_features=768, bias=True
            #params: 2.36M, #flops: 38.65G
          )
          (final_layer_norm): LayerNorm(
            (768,), eps=1e-05, elementwise_affine=True
            #params: 1.54K, #flops: 62.91M
          )
        )
        (5): OPTDecoderLayer(
          #params: 7.09M, #flops: 0.17T
          (self_attn): OPTAttention(
            #params: 2.36M, #flops: 90.19G
            (k_proj): Linear(
              in_features=768, out_features=768, bias=True
              #params: 0.59M, #flops: 9.66G
            )
            (v_proj): Linear(
              in_features=768, out_features=768, bias=True
              #params: 0.59M, #flops: 9.66G
            )
            (q_proj): Linear(
              in_features=768, out_features=768, bias=True
              #params: 0.59M, #flops: 9.66G
            )
            (out_proj): Linear(
              in_features=768, out_features=768, bias=True
              #params: 0.59M, #flops: 9.66G
            )
          )
          (activation_fn): ReLU()
          (self_attn_layer_norm): LayerNorm(
            (768,), eps=1e-05, elementwise_affine=True
            #params: 1.54K, #flops: 62.91M
          )
          (fc1): Linear(
            in_features=768, out_features=3072, bias=True
            #params: 2.36M, #flops: 38.65G
          )
          (fc2): Linear(
            in_features=3072, out_features=768, bias=True
            #params: 2.36M, #flops: 38.65G
          )
          (final_layer_norm): LayerNorm(
            (768,), eps=1e-05, elementwise_affine=True
            #params: 1.54K, #flops: 62.91M
          )
        )
        (6): OPTDecoderLayer(
          #params: 7.09M, #flops: 0.17T
          (self_attn): OPTAttention(
            #params: 2.36M, #flops: 90.19G
            (k_proj): Linear(
              in_features=768, out_features=768, bias=True
              #params: 0.59M, #flops: 9.66G
            )
            (v_proj): Linear(
              in_features=768, out_features=768, bias=True
              #params: 0.59M, #flops: 9.66G
            )
            (q_proj): Linear(
              in_features=768, out_features=768, bias=True
              #params: 0.59M, #flops: 9.66G
            )
            (out_proj): Linear(
              in_features=768, out_features=768, bias=True
              #params: 0.59M, #flops: 9.66G
            )
          )
          (activation_fn): ReLU()
          (self_attn_layer_norm): LayerNorm(
            (768,), eps=1e-05, elementwise_affine=True
            #params: 1.54K, #flops: 62.91M
          )
          (fc1): Linear(
            in_features=768, out_features=3072, bias=True
            #params: 2.36M, #flops: 38.65G
          )
          (fc2): Linear(
            in_features=3072, out_features=768, bias=True
            #params: 2.36M, #flops: 38.65G
          )
          (final_layer_norm): LayerNorm(
            (768,), eps=1e-05, elementwise_affine=True
            #params: 1.54K, #flops: 62.91M
          )
        )
        (7): OPTDecoderLayer(
          #params: 7.09M, #flops: 0.17T
          (self_attn): OPTAttention(
            #params: 2.36M, #flops: 90.19G
            (k_proj): Linear(
              in_features=768, out_features=768, bias=True
              #params: 0.59M, #flops: 9.66G
            )
            (v_proj): Linear(
              in_features=768, out_features=768, bias=True
              #params: 0.59M, #flops: 9.66G
            )
            (q_proj): Linear(
              in_features=768, out_features=768, bias=True
              #params: 0.59M, #flops: 9.66G
            )
            (out_proj): Linear(
              in_features=768, out_features=768, bias=True
              #params: 0.59M, #flops: 9.66G
            )
          )
          (activation_fn): ReLU()
          (self_attn_layer_norm): LayerNorm(
            (768,), eps=1e-05, elementwise_affine=True
            #params: 1.54K, #flops: 62.91M
          )
          (fc1): Linear(
            in_features=768, out_features=3072, bias=True
            #params: 2.36M, #flops: 38.65G
          )
          (fc2): Linear(
            in_features=3072, out_features=768, bias=True
            #params: 2.36M, #flops: 38.65G
          )
          (final_layer_norm): LayerNorm(
            (768,), eps=1e-05, elementwise_affine=True
            #params: 1.54K, #flops: 62.91M
          )
        )
        (8): OPTDecoderLayer(
          #params: 7.09M, #flops: 0.17T
          (self_attn): OPTAttention(
            #params: 2.36M, #flops: 90.19G
            (k_proj): Linear(
              in_features=768, out_features=768, bias=True
              #params: 0.59M, #flops: 9.66G
            )
            (v_proj): Linear(
              in_features=768, out_features=768, bias=True
              #params: 0.59M, #flops: 9.66G
            )
            (q_proj): Linear(
              in_features=768, out_features=768, bias=True
              #params: 0.59M, #flops: 9.66G
            )
            (out_proj): Linear(
              in_features=768, out_features=768, bias=True
              #params: 0.59M, #flops: 9.66G
            )
          )
          (activation_fn): ReLU()
          (self_attn_layer_norm): LayerNorm(
            (768,), eps=1e-05, elementwise_affine=True
            #params: 1.54K, #flops: 62.91M
          )
          (fc1): Linear(
            in_features=768, out_features=3072, bias=True
            #params: 2.36M, #flops: 38.65G
          )
          (fc2): Linear(
            in_features=3072, out_features=768, bias=True
            #params: 2.36M, #flops: 38.65G
          )
          (final_layer_norm): LayerNorm(
            (768,), eps=1e-05, elementwise_affine=True
            #params: 1.54K, #flops: 62.91M
          )
        )
        (9): OPTDecoderLayer(
          #params: 7.09M, #flops: 0.17T
          (self_attn): OPTAttention(
            #params: 2.36M, #flops: 90.19G
            (k_proj): Linear(
              in_features=768, out_features=768, bias=True
              #params: 0.59M, #flops: 9.66G
            )
            (v_proj): Linear(
              in_features=768, out_features=768, bias=True
              #params: 0.59M, #flops: 9.66G
            )
            (q_proj): Linear(
              in_features=768, out_features=768, bias=True
              #params: 0.59M, #flops: 9.66G
            )
            (out_proj): Linear(
              in_features=768, out_features=768, bias=True
              #params: 0.59M, #flops: 9.66G
            )
          )
          (activation_fn): ReLU()
          (self_attn_layer_norm): LayerNorm(
            (768,), eps=1e-05, elementwise_affine=True
            #params: 1.54K, #flops: 62.91M
          )
          (fc1): Linear(
            in_features=768, out_features=3072, bias=True
            #params: 2.36M, #flops: 38.65G
          )
          (fc2): Linear(
            in_features=3072, out_features=768, bias=True
            #params: 2.36M, #flops: 38.65G
          )
          (final_layer_norm): LayerNorm(
            (768,), eps=1e-05, elementwise_affine=True
            #params: 1.54K, #flops: 62.91M
          )
        )
        (10): OPTDecoderLayer(
          #params: 7.09M, #flops: 0.17T
          (self_attn): OPTAttention(
            #params: 2.36M, #flops: 90.19G
            (k_proj): Linear(
              in_features=768, out_features=768, bias=True
              #params: 0.59M, #flops: 9.66G
            )
            (v_proj): Linear(
              in_features=768, out_features=768, bias=True
              #params: 0.59M, #flops: 9.66G
            )
            (q_proj): Linear(
              in_features=768, out_features=768, bias=True
              #params: 0.59M, #flops: 9.66G
            )
            (out_proj): Linear(
              in_features=768, out_features=768, bias=True
              #params: 0.59M, #flops: 9.66G
            )
          )
          (activation_fn): ReLU()
          (self_attn_layer_norm): LayerNorm(
            (768,), eps=1e-05, elementwise_affine=True
            #params: 1.54K, #flops: 62.91M
          )
          (fc1): Linear(
            in_features=768, out_features=3072, bias=True
            #params: 2.36M, #flops: 38.65G
          )
          (fc2): Linear(
            in_features=3072, out_features=768, bias=True
            #params: 2.36M, #flops: 38.65G
          )
          (final_layer_norm): LayerNorm(
            (768,), eps=1e-05, elementwise_affine=True
            #params: 1.54K, #flops: 62.91M
          )
        )
        (11): OPTDecoderLayer(
          #params: 7.09M, #flops: 0.17T
          (self_attn): OPTAttention(
            #params: 2.36M, #flops: 90.19G
            (k_proj): Linear(
              in_features=768, out_features=768, bias=True
              #params: 0.59M, #flops: 9.66G
            )
            (v_proj): Linear(
              in_features=768, out_features=768, bias=True
              #params: 0.59M, #flops: 9.66G
            )
            (q_proj): Linear(
              in_features=768, out_features=768, bias=True
              #params: 0.59M, #flops: 9.66G
            )
            (out_proj): Linear(
              in_features=768, out_features=768, bias=True
              #params: 0.59M, #flops: 9.66G
            )
          )
          (activation_fn): ReLU()
          (self_attn_layer_norm): LayerNorm(
            (768,), eps=1e-05, elementwise_affine=True
            #params: 1.54K, #flops: 62.91M
          )
          (fc1): Linear(
            in_features=768, out_features=3072, bias=True
            #params: 2.36M, #flops: 38.65G
          )
          (fc2): Linear(
            in_features=3072, out_features=768, bias=True
            #params: 2.36M, #flops: 38.65G
          )
          (final_layer_norm): LayerNorm(
            (768,), eps=1e-05, elementwise_affine=True
            #params: 1.54K, #flops: 62.91M
          )
        )
      )
    )
  )
  (lm_head): Linear(
    in_features=768, out_features=50272, bias=False
    #params: 0, #flops: 0.63T
  )
)
| module                                                   | #parameters or shape   | #flops      |
|:---------------------------------------------------------|:-----------------------|:------------|
| model                                                    | 0.125G                 | 2.644T      |
|  model.decoder                                           |  0.125G                |  2.012T     |
…
